Namespace(batchSize=256, beta1=0.5, cuda=False, dataroot='data/', imageSize=64, lr=0.0002, manualSeed=None, ndf=64, netD='output/gan-samples/netD_epoch_1.pth', netG='output/gan-samples/netG_epoch_1.pth', ngf=64, ngpu=1, niter=25, nz=100, outf='output/gan-samples/', workers=2)
cuda: True
('Random Seed: ', 5261)
Discriminator (
  (main): Sequential (
    (0): Conv2d(3, 64, kernel_size=(4, 4), stride=(2, 2), padding=(1, 1), bias=False)
    (1): LeakyReLU (0.2, inplace)
    (2): Conv2d(64, 128, kernel_size=(4, 4), stride=(2, 2), padding=(1, 1), bias=False)
    (3): BatchNorm2d(128, eps=1e-05, momentum=0.1, affine=True)
    (4): LeakyReLU (0.2, inplace)
    (5): Conv2d(128, 256, kernel_size=(4, 4), stride=(2, 2), padding=(1, 1), bias=False)
    (6): BatchNorm2d(256, eps=1e-05, momentum=0.1, affine=True)
    (7): LeakyReLU (0.2, inplace)
    (8): Conv2d(256, 512, kernel_size=(4, 4), stride=(2, 2), padding=(1, 1), bias=False)
    (9): BatchNorm2d(512, eps=1e-05, momentum=0.1, affine=True)
    (10): LeakyReLU (0.2, inplace)
    (11): Conv2d(512, 1, kernel_size=(4, 4), stride=(1, 1), bias=False)
    (12): Sigmoid ()
  )
)
Generator (
  (main): Sequential (
    (0): ConvTranspose2d(100, 512, kernel_size=(4, 4), stride=(1, 1), bias=False)
    (1): BatchNorm2d(512, eps=1e-05, momentum=0.1, affine=True)
    (2): ReLU (inplace)
    (3): ConvTranspose2d(512, 256, kernel_size=(4, 4), stride=(2, 2), padding=(1, 1), bias=False)
    (4): BatchNorm2d(256, eps=1e-05, momentum=0.1, affine=True)
    (5): ReLU (inplace)
    (6): ConvTranspose2d(256, 128, kernel_size=(4, 4), stride=(2, 2), padding=(1, 1), bias=False)
    (7): BatchNorm2d(128, eps=1e-05, momentum=0.1, affine=True)
    (8): ReLU (inplace)
    (9): ConvTranspose2d(128, 64, kernel_size=(4, 4), stride=(2, 2), padding=(1, 1), bias=False)
    (10): BatchNorm2d(64, eps=1e-05, momentum=0.1, affine=True)
    (11): ReLU (inplace)
    (12): ConvTranspose2d(64, 3, kernel_size=(4, 4), stride=(2, 2), padding=(1, 1), bias=False)
    (13): Tanh ()
  )
)
Starting training
[0/25][0/474] Loss_D: 3.7471 Loss_G: 1.1808 D(x): 0.7948 D(G(z)): 0.2019 / 0.3605
[0/25][1/474] Loss_D: 1.2928 Loss_G: 1.4700 D(x): 0.5755 D(G(z)): 0.4268 / 0.3409
[0/25][2/474] Loss_D: 1.0071 Loss_G: 3.4470 D(x): 0.8166 D(G(z)): 0.4361 / 0.0476
[0/25][3/474] Loss_D: 1.6016 Loss_G: 0.9748 D(x): 0.2700 D(G(z)): 0.0655 / 0.4369
…
